NeuralProphet/.lr_find_821f6248-8a29-44a0-923f-fc06785a885b.ckpt (torch, 11829 bytes, 4 tensors)

trend_deltas f4 [1, 1, 5]
000000 ef 2f 9d 3f ac 6d 74 3e f6 38 8e be 3e 2e 4b 3e
       1.2280253 0.23869962 -0.27777833 0.19841859
000010 f3 85 c1 3c
       0.023623442

trend_changepoints_t f4 [5]
000000 00 00 00 00 0a d7 23 3e 0a d7 a3 3e 8f c2 f5 3e
       0.0 0.16 0.32 0.48
000010 0a d7 23 3f
       0.64

season_params.weekly f4 [1, 1, 6]
000000 35 d0 a6 bd d2 98 63 be f2 56 0c bf c4 41 3b be
       -0.08145181 -0.22226265 -0.5482017 -0.18286806
000010 26 fd 31 be 7e d6 e4 3e
       -0.17381725 0.44694895

ar_net.0.weight f4 [2, 4]
000000 e4 36 95 3c 67 22 0a bf c7 75 78 3e 2a d5 03 bf
       0.01821465 -0.53958744 0.24263678 -0.5149714
000010 14 44 76 3f 67 47 a6 3f 03 83 58 bf d1 c8 81 3e
       0.9619763 1.299054 -0.8457491 0.25348523
