NeuralProphet/.lr_find_85d90d5d-7dd6-410c-9a70-6a828f86cf50.ckpt (torch, 12966 bytes, 4 tensors)

trend_deltas f4 [1, 1, 5]
-0.22703029 0.36292154 -0.044483032 0.39186633 -0.52393156
00000000: a17a 68be dad0 b93e d733 36bd b4a2 c83e
00000010: 6120 06bf

trend_changepoints_t f4 [5]
0.0 0.16 0.32 0.48 0.64
00000000: 0000 0000 0ad7 233e 0ad7 a33e 8fc2 f53e
00000010: 0ad7 233f

season_params.weekly f4 [1, 1, 6]
-0.84221804 0.26824874 -0.3583455 0.26340505 0.5068716 0.07704336
00000000: 9a9b 57bf e657 893e 1079 b7be 07dd 863e
00000010: 56c2 013f e9c8 9d3d

ar_net.0.weight f4 [1, 4]
-0.3659598 -0.3394016 -0.097890355 -0.37736046
00000000: 155f bbbe 0cc6 adbe bd7a c8bd 6435 c1be
